…
    "execution": {
     "iopub.execute_input": "2026-01-04T03:06:04.527682Z",
     "iopub.status.busy": "2026-01-04T03:06:04.527384Z",
     "iopub.status.idle": "2026-01-04T03:06:04.539248Z",
     "shell.execute_reply": "2026-01-04T03:06:04.538544Z"
    },
    "papermill": {
     "duration": 0.033132,
     "end_time": "2026-01-04T03:06:04.540558",
     "exception": false,
     "start_time": "2026-01-04T03:06:04.507426",
     "status": "completed"
    },
    "tags": []
   },
   "outputs": [
    {
     "data": {
      "text/plain": [
       "ConvNeXt(\n",
       "  (stem): Sequential(\n",
       "    (0): Conv2d(3, 96, kernel_size=(4, 4), stride=(4, 4))\n",
       "    (1): LayerNorm2d((96,), eps=1e-06, elementwise_affine=True)\n",
       "  )\n",
       "  (stages): Sequential(\n",
       "    (0): ConvNeXtStage(\n",
       "      (downsample): Identity()\n",
       "      (blocks): Sequential(\n",
       "        (0): ConvNeXtBlock(\n",
       "          (conv_dw): Conv2d(96, 96, kernel_size=(7, 7), stride=(1, 1), padding=(3, 3), groups=96)\n",
       "          (norm): LayerNorm((96,), eps=1e-06, elementwise_affine=True)\n",
       "          (mlp): Mlp(\n",
       "            (fc1): Linear(in_features=96, out_features=384, bias=True)\n",
       "            (act): GELU()\n",
       "            (drop1): Dropout(p=0.0, inplace=False)\n",
       "            (norm): Identity()\n",
       "            (fc2): Linear(in_features=384, out_features=96, bias=True)\n",
       "            (drop2): Dropout(p=0.0, inplace=False)\n",
       "          )\n",
       "          (shortcut): Identity()\n",
       "          (drop_path): Identity()\n",
       "        )\n",
       "        (1): ConvNeXtBlock(\n",
       "          (conv_dw): Conv2d(96, 96, kernel_size=(7, 7), stride=(1, 1), padding=(3, 3), groups=96)\n",
       "          (norm): LayerNorm((96,), eps=1e-06, elementwise_affine=True)\n",
       "          (mlp): Mlp(\n",
       "            (fc1): Linear(in_features=96, out_features=384, bias=True)\n",
       "            (act): GELU()\n",
       "            (drop1): Dropout(p=0.0, inplace=False)\n",
       "            (norm): Identity()\n",
       "            (fc2): Linear(in_features=384, out_features=96, bias=True)\n",
       "            (drop2): Dropout(p=0.0, inplace=False)\n",
       "          )\n",
       "          (shortcut): Identity()\n",
       "          (drop_path): Identity()\n",
       "        )\n",
       "        (2): ConvNeXtBlock(\n",
       "          (conv_dw): Conv2d(96, 96, kernel_size=(7, 7), stride=(1, 1), padding=(3, 3), groups=96)\n",
       "          (norm): LayerNorm((96,), eps=1e-06, elementwise_affine=True)\n",
       "          (mlp): Mlp(\n",
       "            (fc1): Linear(in_features=96, out_features=384, bias=True)\n",
       "            (act): GELU()\n",
       "            (drop1): Dropout(p=0.0, inplace=False)\n",
       "            (norm): Identity()\n",
       "            (fc2): Linear(in_features=384, out_features=96, bias=True)\n",
       "            (drop2): Dropout(p=0.0, inplace=False)\n",
       "          )\n",
       "          (shortcut): Identity()\n",
       "          (drop_path): Identity()\n",
       "        )\n",
       "      )\n",
       "    )\n",
       "    (1): ConvNeXtStage(\n",
       "      (downsample): Sequential(\n",
       "        (0): LayerNorm2d((96,), eps=1e-06, elementwise_affine=True)\n",
       "        (1): Conv2d(96, 192, kernel_size=(2, 2), stride=(2, 2))\n",
       "      )\n",
       "      (blocks): Sequential(\n",
       "        (0): ConvNeXtBlock(\n",
       "          (conv_dw): Conv2d(192, 192, kernel_size=(7, 7), stride=(1, 1), padding=(3, 3), groups=192)\n",
       "          (norm): LayerNorm((192,), eps=1e-06, elementwise_affine=True)\n",
       "          (mlp): Mlp(\n",
       "            (fc1): Linear(in_features=192, out_features=768, bias=True)\n",
       "            (act): GELU()\n",
       "            (drop1): Dropout(p=0.0, inplace=False)\n",
       "            (norm): Identity()\n",
       "            (fc2): Linear(in_features=768, out_features=192, bias=True)\n",
       "            (drop2): Dropout(p=0.0, inplace=False)\n",
       "          )\n",
       "          (shortcut): Identity()\n",
       "          (drop_path): Identity()\n",
       "        )\n",
       "        (1): ConvNeXtBlock(\n",
       "          (conv_dw): Conv2d(192, 192, kernel_size=(7, 7), stride=(1, 1), padding=(3, 3), groups=192)\n",
       "          (norm): LayerNorm((192,), eps=1e-06, elementwise_affine=True)\n",
       "          (mlp): Mlp(\n",
       "            (fc1): Linear(in_features=192, out_features=768, bias=True)\n",
       "            (act): GELU()\n",
       "            (drop1): Dropout(p=0.0, inplace=False)\n",
       "            (norm): Identity()\n",
       "            (fc2): Linear(in_features=768, out_features=192, bias=True)\n",
       "            (drop2): Dropout(p=0.0, inplace=False)\n",
       "          )\n",
       "          (shortcut): Identity()\n",
       "          (drop_path): Identity()\n",
       "        )\n",
       "        (2): ConvNeXtBlock(\n",
       "          (conv_dw): Conv2d(192, 192, kernel_size=(7, 7), stride=(1, 1), padding=(3, 3), groups=192)\n",
       "          (norm): LayerNorm((192,), eps=1e-06, elementwise_affine=True)\n",
       "          (mlp): Mlp(\n",
       "            (fc1): Linear(in_features=192, out_features=768, bias=True)\n",
       "            (act): GELU()\n",
       "            (drop1): Dropout(p=0.0, inplace=False)\n",
       "            (norm): Identity()\n",
       "            (fc2): Linear(in_features=768, out_features=192, bias=True)\n",
       "            (drop2): Dropout(p=0.0, inplace=False)\n",
       "          )\n",
       "          (shortcut): Identity()\n",
       "          (drop_path): Identity()\n",
       "        )\n",
       "      )\n",
       "    )\n",
       "    (2): ConvNeXtStage(\n",
       "      (downsample): Sequential(\n",
       "        (0): LayerNorm2d((192,), eps=1e-06, elementwise_affine=True)\n",
       "        (1): Conv2d(192, 384, kernel_size=(2, 2), stride=(2, 2))\n",
       "      )\n",
       "      (blocks): Sequential(\n",
       "        (0): ConvNeXtBlock(\n",
       "          (conv_dw): Conv2d(384, 384, kernel_size=(7, 7), stride=(1, 1), padding=(3, 3), groups=384)\n",
       "          (norm): LayerNorm((384,), eps=1e-06, elementwise_affine=True)\n",
       "          (mlp): Mlp(\n",
       "            (fc1): Linear(in_features=384, out_features=1536, bias=True)\n",
       "            (act): GELU()\n",
       "            (drop1): Dropout(p=0.0, inplace=False)\n",
       "            (norm): Identity()\n",
       "            (fc2): Linear(in_features=1536, out_features=384, bias=True)\n",
       "            (drop2): Dropout(p=0.0, inplace=False)\n",
       "          )\n",
       "          (shortcut): Identity()\n",
       "          (drop_path): Identity()\n",
       "        )\n",
       "        (1): ConvNeXtBlock(\n",
       "          (conv_dw): Conv2d(384, 384, kernel_size=(7, 7), stride=(1, 1), padding=(3, 3), groups=384)\n",
       "          (norm): LayerNorm((384,), eps=1e-06, elementwise_affine=True)\n",
       "          (mlp): Mlp(\n",
       "            (fc1): Linear(in_features=384, out_features=1536, bias=True)\n",
       "            (act): GELU()\n",
       "            (drop1): Dropout(p=0.0, inplace=False)\n",
       "            (norm): Identity()\n",
       "            (fc2): Linear(in_features=1536, out_features=384, bias=True)\n",
       "            (drop2): Dropout(p=0.0, inplace=False)\n",
       "          )\n",
       "          (shortcut): Identity()\n",
       "          (drop_path): Identity()\n",
       "        )\n",
       "        (2): ConvNeXtBlock(\n",
       "          (conv_dw): Conv2d(384, 384, kernel_size=(7, 7), stride=(1, 1), padding=(3, 3), groups=384)\n",
       "          (norm): LayerNorm((384,), eps=1e-06, elementwise_affine=True)\n",
       "          (mlp): Mlp(\n",
       "            (fc1): Linear(in_features=384, out_features=1536, bias=True)\n",
       "            (act): GELU()\n",
       "            (drop1): Dropout(p=0.0, inplace=False)\n",
       "            (norm): Identity()\n",
       "            (fc2): Linear(in_features=1536, out_features=384, bias=True)\n",
       "            (drop2): Dropout(p=0.0, inplace=False)\n",
       "          )\n",
       "          (shortcut): Identity()\n",
       "          (drop_path): Identity()\n",
       "        )\n",
       "        (3): ConvNeXtBlock(\n",
       "          (conv_dw): Conv2d(384, 384, kernel_size=(7, 7), stride=(1, 1), padding=(3, 3), groups=384)\n",
       "          (norm): LayerNorm((384,), eps=1e-06, elementwise_affine=True)\n",
       "          (mlp): Mlp(\n",
       "            (fc1): Linear(in_features=384, out_features=1536, bias=True)\n",
       "            (act): GELU()\n",
       "            (drop1): Dropout(p=0.0, inplace=False)\n",
       "            (norm): Identity()\n",
       "            (fc2): Linear(in_features=1536, out_features=384, bias=True)\n",
       "            (drop2): Dropout(p=0.0, inplace=False)\n",
       "          )\n",
       "          (shortcut): Identity()\n",
       "          (drop_path): Identity()\n",
       "        )\n",
       "        (4): ConvNeXtBlock(\n",
       "          (conv_dw): Conv2d(384, 384, kernel_size=(7, 7), stride=(1, 1), padding=(3, 3), groups=384)\n",
       "          (norm): LayerNorm((384,), eps=1e-06, elementwise_affine=True)\n",
       "          (mlp): Mlp(\n",
       "            (fc1): Linear(in_features=384, out_features=1536, bias=True)\n",
       "            (act): GELU()\n",
       "            (drop1): Dropout(p=0.0, inplace=False)\n",
       "            (norm): Identity()\n",
       "            (fc2): Linear(in_features=1536, out_features=384, bias=True)\n",
       "            (drop2): Dropout(p=0.0, inplace=False)\n",
       "          )\n",
       "          (shortcut): Identity()\n",
       "          (drop_path): Identity()\n",
       "        )\n",
       "        (5): ConvNeXtBlock(\n",
       "          (conv_dw): Conv2d(384, 384, kernel_size=(7, 7), stride=(1, 1), padding=(3, 3), groups=384)\n",
       "          (norm): LayerNorm((384,), eps=1e-06, elementwise_affine=True)\n",
       "          (mlp): Mlp(\n",
       "            (fc1): Linear(in_features=384, out_features=1536, bias=True)\n",
       "            (act): GELU()\n",
       "            (drop1): Dropout(p=0.0, inplace=False)\n",
       "            (norm): Identity()\n",
       "            (fc2): Linear(in_features=1536, out_features=384, bias=True)\n",
       "            (drop2): Dropout(p=0.0, inplace=False)\n",
       "          )\n",
       "          (shortcut): Identity()\n",
       "          (drop_path): Identity()\n",
       "        )\n",
       "        (6): ConvNeXtBlock(\n",
       "          (conv_dw): Conv2d(384, 384, kernel_size=(7, 7), stride=(1, 1), padding=(3, 3), groups=384)\n",
       "          (norm): LayerNorm((384,), eps=1e-06, elementwise_affine=True)\n",
       "          (mlp): Mlp(\n",
       "            (fc1): Linear(in_features=384, out_features=1536, bias=True)\n",
       "            (act): GELU()\n",
       "            (drop1): Dropout(p=0.0, inplace=False)\n",
       "            (norm): Identity()\n",
       "            (fc2): Linear(in_features=1536, out_features=384, bias=True)\n",
       "            (drop2): Dropout(p=0.0, inplace=False)\n",
       "          )\n",
       "          (shortcut): Identity()\n",
       "          (drop_path): Identity()\n",
       "        )\n",
       "        (7): ConvNeXtBlock(\n",
       "          (conv_dw): Conv2d(384, 384, kernel_size=(7, 7), stride=(1, 1), padding=(3, 3), groups=384)\n",
       "          (norm): LayerNorm((384,), eps=1e-06, elementwise_affine=True)\n",
       "          (mlp): Mlp(\n",
       "            (fc1): Linear(in_features=384, out_features=1536, bias=True)\n",
       "            (act): GELU()\n",
       "            (drop1): Dropout(p=0.0, inplace=False)\n",
       "            (norm): Identity()\n",
       "            (fc2): Linear(in_features=1536, out_features=384, bias=True)\n",
       "            (drop2): Dropout(p=0.0, inplace=False)\n",
       "          )\n",
       "          (shortcut): Identity()\n",
       "          (drop_path): Identity()\n",
       "        )\n",
       "        (8): ConvNeXtBlock(\n",
       "          (conv_dw): Conv2d(384, 384, kernel_size=(7, 7), stride=(1, 1), padding=(3, 3), groups=384)\n",
       "          (norm): LayerNorm((384,), eps=1e-06, elementwise_affine=True)\n",
       "          (mlp): Mlp(\n",
       "            (fc1): Linear(in_features=384, out_features=1536, bias=True)\n",
       "            (act): GELU()\n",
       "            (drop1): Dropout(p=0.0, inplace=False)\n",
       "            (norm): Identity()\n",
       "            (fc2): Linear(in_features=1536, out_features=384, bias=True)\n",
       "            (drop2): Dropout(p=0.0, inplace=False)\n",
       "          )\n",
       "          (shortcut): Identity()\n",
       "          (drop_path): Identity()\n",
       "        )\n",
       "      )\n",
       "    )\n",
       "    (3): ConvNeXtStage(\n",
       "      (downsample): Sequential(\n",
       "        (0): LayerNorm2d((384,), eps=1e-06, elementwise_affine=True)\n",
       "        (1): Conv2d(384, 768, kernel_size=(2, 2), stride=(2, 2))\n",
       "      )\n",
       "      (blocks): Sequential(\n",
       "        (0): ConvNeXtBlock(\n",
       "          (conv_dw): Conv2d(768, 768, kernel_size=(7, 7), stride=(1, 1), padding=(3, 3), groups=768)\n",
       "          (norm): LayerNorm((768,), eps=1e-06, elementwise_affine=True)\n",
       "          (mlp): Mlp(\n",
       "            (fc1): Linear(in_features=768, out_features=3072, bias=True)\n",
       "            (act): GELU()\n",
       "            (drop1): Dropout(p=0.0, inplace=False)\n",
       "            (norm): Identity()\n",
       "            (fc2): Linear(in_features=3072, out_features=768, bias=True)\n",
       "            (drop2): Dropout(p=0.0, inplace=False)\n",
       "          )\n",
       "          (shortcut): Identity()\n",
       "          (drop_path): Identity()\n",
       "        )\n",
       "        (1): ConvNeXtBlock(\n",
       "          (conv_dw): Conv2d(768, 768, kernel_size=(7, 7), stride=(1, 1), padding=(3, 3), groups=768)\n",
       "          (norm): LayerNorm((768,), eps=1e-06, elementwise_affine=True)\n",
       "          (mlp): Mlp(\n",
       "            (fc1): Linear(in_features=768, out_features=3072, bias=True)\n",
       "            (act): GELU()\n",
       "            (drop1): Dropout(p=0.0, inplace=False)\n",
       "            (norm): Identity()\n",
       "            (fc2): Linear(in_features=3072, out_features=768, bias=True)\n",
       "            (drop2): Dropout(p=0.0, inplace=False)\n",
       "          )\n",
       "          (shortcut): Identity()\n",
       "          (drop_path): Identity()\n",
       "        )\n",
       "        (2): ConvNeXtBlock(\n",
       "          (conv_dw): Conv2d(768, 768, kernel_size=(7, 7), stride=(1, 1), padding=(3, 3), groups=768)\n",
       "          (norm): LayerNorm((768,), eps=1e-06, elementwise_affine=True)\n",
       "          (mlp): Mlp(\n",
       "            (fc1): Linear(in_features=768, out_features=3072, bias=True)\n",
       "            (act): GELU()\n",
       "            (drop1): Dropout(p=0.0, inplace=False)\n",
       "            (norm): Identity()\n",
       "            (fc2): Linear(in_features=3072, out_features=768, bias=True)\n",
       "            (drop2): Dropout(p=0.0, inplace=False)\n",
       "          )\n",
       "          (shortcut): Identity()\n",
       "          (drop_path): Identity()\n",
       "        )\n",
       "      )\n",
       "    )\n",
       "  )\n",
       "  (norm_pre): Identity()\n",
       "  (head): NormMlpClassifierHead(\n",
       "    (global_pool): SelectAdaptivePool2d(pool_type=avg, flatten=Identity())\n",
       "    (norm): LayerNorm2d((768,), eps=1e-06, elementwise_affine=True)\n",
       "    (flatten): Flatten(start_dim=1, end_dim=-1)\n",
       "    (pre_logits): Identity()\n",
       "    (drop): Dropout(p=0.0, inplace=False)\n",
       "    (fc): Linear(in_features=768, out_features=9, bias=True)\n",
       "  )\n",
       ")"
      ]
     },
     "execution_count": 33,
     "metadata": {},
     "output_type": "execute_result"
    }
   ],
   "source": [
    "model.load_state_dict(best_state)\n",
    "model.eval()\n"
   ]
  },
  {
   "cell_type": "code",
   "execution_count": 34,
   "id": "2ceae8b6",
   "metadata": {
    "execution": {
     "iopub.execute_input": "2026-01-04T03:06:04.581217Z",
…
